Chatbot_guy/github_chatbot_medical/MedicalChatbot/models/data.pth (torch, 29271 bytes, 6 tensors)

l1.weight f4 [8, 413]
00000000: 242b 203e 3664 0d3f 4a44 d83e 5ef8 84be
00000010: 00c3 39be af2a d83e 535c bb3e 5af1 91bd
00000020: 512f b8be 2cfc 3c3d db37 3b3e a11a 0bbe
00000030: 4154 ca3e 9cf6 893e dd1f 56be 7ccd 5abe
00000040: fd00 84be 42a1 18be aaa5 82bd 0e9e bfbe
00000050: c51f 23be 3bec 38be 6146 6abc 3c2b 7a3f
00000060: 556d 9a3d e674 f0bd 6e08 2b3f 8460 7fbc
00000070: de47 e1be 2531 bb3d 24a6 be3e 6659 dfbe
00000080: dce7 423d 8324 213e 15d4 c4bd 5f25 cd3d
00000090: 9bfe 17be ed4d ba3e 2445 e43e 49d5 8cbd
000000a0: f2da a63e 06b6 63be 30c9 d13e 0006 b53d
000000b0: 01fc c1be e6a7 f23d 66db b0bd 4e78 c8be
000000c0: 8776 1a3d 09a8 073d 83e8 7fbe 7b1f 9abe
000000d0: 287c 473e e0a6 f8be 2671 a53d f3cd d13d
000000e0: a958 03bf f0ec 86be dc24 e0be ab40 1cbf
000000f0: a039 563e 5107 86be b0ff 973e e58a 50be
00000100: 1dbf f43d 027c 923e ab5a 713e 73c4 973e
00000110: be6e 47bc e947 133f 6523 46bc 0d5d a83e
00000120: f3d7 403f 1835 153c 08a0 84bf e7ac 6bbe
00000130: 53e6 eb3e afbc 0a3f 2ac7 fe3e f64d 3abf
00000140: f6f4 6e3d 4de8 d9bd 4ac8 b63e 5821 0e3e
00000150: 8bf3 d3bd 43dd 42be 8435 293e 89ab 363c
00000160: b8ab 993e b900 563e 5b5a 56be 9dc0 703e
00000170: 5d4e 04be 11ca 84be b025 86be 9fbb 74be
00000180: 4ce4 9fbe 5d2a c0bd 425b 063e 5ca9 4fbe
00000190: 3b68 8f3d ab63 9dbe 171e 81bd 8fbc 873e
000001a0: b9f5 a1be 5f70 603d 132c 31be 9386 b4be
000001b0: 6369 c03e a762 013e 515b 383e 462f 62be
000001c0: ab5c 07be 26a8 c8bd d3b7 0ebe 71a8 db3d
000001d0: 7f72 403d 00e7 e0bd 68b1 82bd 0914 073f
000001e0: 8c76 aa3d e603 76bb e6c6 b93a 0095 15bd
000001f0: 9fe3 cd3d 9d56 37be 87f8 8c3e 3026 99be
00000200: d708 fdbe 84ee c83e 2ebc cfbd 8132 02bd
00000210: 7570 bc3e 4b2e 143e 2215 08bf 35e7 8c3d
00000220: bf42 2b3e 33d9 24be b980 debd afa6 463e
00000230: 5d82 063c 06c5 983d d94f 3f3e e6d9 a43e
00000240: 1024 b43d c682 13be 3825 77bd 98c5 8c3e
00000250: ab9a 30be 7f99 40be f7d8 54bd d1b6 d1bd
00000260: 0508 44be ff42 cbbe 7446 e23d f7c0 423d
00000270: 62e0 e63d 71d8 a63e 8dff 253d 921b 77bd
00000280: f810 15bf bde2 29bf 53ae 0abf 9ef9 d93e
00000290: 12ca 92be b67a a0bd 3275 f5be 543f b6bd
000002a0: cea3 113f de44 c7bd 9375 e63e 7d99 173f
000002b0: ba11 a7bd 9bcb d83e 2d83 bd3e a4e9 4e3e
000002c0: 9cc2 c9bc 0c26 823e ff78 803e d90d 7cbd
000002d0: d2e7 743e abdf d7bd 9f3d bd3e a51c 8e3e
000002e0: 7367 463e 16b8 b63d 5add 53be 4361 d33d
000002f0: 1f17 263e 63d3 72be 20af e63e bdbc 9cbd
00000300: 772c 9f3e 261b 703e afcc 7fbe 1348 69bd
00000310: a545 903d 341a 883e 5b5d 9fbe 5d43 24be
00000320: 6268 cc3e 6af7 74be 5095 45be 6e2c 403e
00000330: b647 133c 32e7 1a3e 5023 59be e681 67bc
00000340: c284 0dbe f993 a5bd 50c1 e0be 56a3 463c
00000350: d72e 523d 1231 213e a932 e8bb dee4 3c3c
00000360: 493d 1abe 9974 d9bd ac5e 95be cff7 3abe
00000370: 3774 66bb af42 a43e f84c f23e 4f61 803e
00000380: 3b33 99be dc5e f6bd 7fad b63d f8bb 143e
00000390: 7463 f5be 8142 783b d474 65bf 0a74 2dbd
000003a0: f514 3abf b138 363e 5adf 933e b65c 8a3e
000003b0: 8bbb 8cbf aacc 32be c983 6bbd 8681 0abe
000003c0: 09ab a43e be57 34be 305d aabe fb19 bb3f
000003d0: e3c3 efbd 59d7 17bf 6895 e83d 1eb0 e43d
000003e0: f0c9 d23e 4608 893e cd10 323d c5a2 873d
000003f0: 1422 e9bd a92b 45bc 8d05 1dbe b77c fd3c
0.15641457 0.55231035 0.422396 -0.2597074 -0.18140793 0.42220065 0.36593875 -0.07126112
-0.359736 0.046138927 0.18283026 -0.13584377 0.39517406 0.2694596 -0.20910592 -0.21367449
-0.25782004 -0.14905265 -0.06379254 -0.37425274 -0.15930088 -0.18058865 -0.014299006 0.9772222
0.07540385 -0.117410466 0.6680974 -0.015586976 -0.44000143 0.09140233 0.3723613 -0.43622893
0.0475844 0.15736584 -0.09610764 0.100168936 -0.14843218 0.36387578 0.44584 -0.068766184
0.32588917 -0.22237405 0.40973806 0.08839035 -0.37887576 0.1184843 -0.08635597 -0.39154285
0.037710693 0.033119235 -0.2499104 -0.30102143 0.19480956 -0.48564816 0.08078222 0.1024436
-0.5130716 -0.26352644 -0.4377812 -0.61036175 0.2092042 -0.26177457 0.29687262 -0.20365484
0.119505145 0.28610235 0.23569743 0.29642066 -0.012172399 0.575316 -0.0120934 0.32883492
0.7532951 0.009106897 -1.0361338 -0.23015176 0.4607416 0.5419416 0.49761325 -0.7277521
0.05833908 -0.10640011 0.35699683 0.13879907 -0.103491865 -0.19029717 0.16524321 0.011149296
0.30013824 0.20898713 -0.20932905 0.23510976 -0.12920518 -0.25935414 -0.26200628 -0.23899697
-0.31228864 -0.0938308 0.1312075 -0.20279449 0.07002302 -0.30740103 -0.06304567 0.26511046
-0.31632784 0.054794665 -0.17301969 -0.35258922 0.37580404 0.12635289 0.18003584 -0.22088346
-0.13218944 -0.09797697 -0.13937311 0.10725487 0.046984192 -0.1098156 -0.06381494 0.52764946
0.08323392 -0.0037538945 0.0014173656 -0.03651905 0.10053181 -0.17904134 0.2753336 -0.29911947
-0.49420807 0.39244473 -0.10143314 -0.031786446 0.36804548 0.14470784 -0.53157246 0.06880037
0.1672468 -0.1609848 -0.10864396 0.19399522 0.008209792 0.07459454 0.18682803 0.32197493
0.08795941 -0.14405355 -0.06033823 0.27494502 -0.17246501 -0.18808554 -0.051964726 -0.102399476
-0.19143684 -0.3969955 0.11048594 0.047547307 0.112732664 0.32587007 0.040526915 -0.060329027
-0.5822902 -0.663616 -0.5417225 0.42573255 -0.28669792 -0.07835905 -0.47940975 -0.08898798
0.5689057 -0.09729932 0.45011577 0.5921858 -0.08157678 0.4234284 0.37014142 0.20206314
-0.02462893 0.25419652 0.25092313 -0.061536644 0.23916557 -0.10540708 0.36961076 0.2775623
0.193754 0.0892183 -0.20689908 0.103212856 0.16219757 -0.2371345 0.45055485 -0.076531865
0.3108861 0.23447856 -0.24980424 -0.0569535 0.07044534 0.2658249 -0.31125912 -0.16041322
0.39923388 -0.23922506 -0.1929524 0.18766949 0.008989265 0.15127257 -0.21204877 -0.014130091
-0.13820174 -0.08084864 -0.43897486 0.012123903 0.0513142 0.15741375 -0.0070861173 0.011529176
-0.15062441 -0.10617942 -0.2917379 -0.18258594 -0.0035164484 0.32082126 0.47324347 0.2507424
-0.29921898 -0.12029812 0.089198105 0.1452483 -0.4792744 0.0037881436 -0.8963139 -0.04234699
-0.7268823 0.17795064 0.2888134 0.27023858 -1.0994734 -0.17460886 -0.057498727 -0.13525972
0.3216174 -0.17611596 -0.3327422 1.4617304 -0.11707284 -0.5931297 0.11356622 0.11166404
0.4116969 0.26764125 0.043473054 0.06622843 -0.11383453 -0.012034335 -0.15334149 0.030943258

l1.bias f4 [8]
00000000: a945 ad3f 2db5 1e40 41b5 c03f 6c1f 043f
00000010: 2940 6a3f b965 b93f cafc cd3f 2f9b 4940
1.3536884 2.479808 1.5055314 0.51610446 0.9150415 1.4484168 1.609277 3.1500967

l2.weight f4 [8, 8]
00000000: 23c5 313e cfd9 4b40 83ab 35c0 d3e4 d63e
00000010: 1621 9a3f c6a9 8bc0 3cae 9140 a00d f13f
00000020: 4dc4 4d40 415b ce40 1a8e e5be af31 debe
00000030: ff87 c83f 4231 c33f 944e 39c0 6ee4 1fc0
00000040: 369f 8c3e 257b d6bf 5956 75c0 9027 983f
00000050: 8e53 1bbe e896 cc40 9541 4640 78b8 ec3f
00000060: 5593 a03f f138 04bf 7aeb f23f a059 a1bf
00000070: 6c5c 9240 95fa 65bf b298 3940 96f7 2bbf
00000080: 569f a340 40aa b5bf 6780 d2bf 4d76 1c40
00000090: 6c84 f0bf 5e58 15bf 83de 5ac0 7092 8a40
000000a0: ebaa e63d 9034 dc3d 435e a63d ee97 813e
000000b0: fe07 76be f751 8bbe 40d8 e23c a5d0 e73d
000000c0: f278 0c3f cd43 3b3f c035 5b40 a116 26bf
000000d0: 104d a23f 6ac8 5340 e7e2 f73d df14 ecbf
000000e0: 9c75 2ac0 5d1c bcbf 89e9 ab40 9e51 a3bf
000000f0: 4526 06c0 f371 65be ee2b 09c0 bc45 9140
0.17360358 3.185169 -2.8385932 0.41971454 1.2041347 -4.3644743 4.552519 1.8832283
3.2151062 6.4486394 -0.44834977 -0.4339728 1.5666503 1.5249407 -2.895421 -2.4983172
0.27465218 -1.6756331 -3.8333952 1.1887074 -0.15168592 6.393421 3.0977528 1.8493795
1.2544962 -0.51649386 1.8978112 -1.2605476 4.573782 -0.8983548 2.8999448 -0.6717466
5.1132 -1.4192581 -1.6445435 2.4447205 -1.8790412 -0.5833796 -3.419831 4.3303757
0.11263069 0.10752213 0.08123448 0.25311226 -0.24026486 -0.27210972 0.027691007 0.11319093
0.5487205 0.7315033 3.4251556 -0.6487828 1.2679768 3.3091073 0.12103825 -1.8443869
-2.6634283 -1.4696156 5.3722577 -1.2759283 -2.0960858 -0.2240675 -2.1433063 4.5397625

l2.bias f4 [8]
00000000: 5eac c83f d11d 583f 3542 e53d 263a 0ebf
00000010: 1449 9c3e 794d 8bbe fc62 ffbe f6fb fa3f
1.5677602 0.84420496 0.111942686 -0.5555748 0.30524504 -0.27207544 -0.49880207 1.9608142

l3.weight f4 [131, 8]
00000000: f147 e0bf 9f84 883f 9c2d d83d beeb 9e3e
00000010: dfc0 8cbb b979 eebd 1b51 2b3f 2bf9 3abe
00000020: c4e2 003e 43df 443f 3a74 abbf 5d89 323f
00000030: c0f9 b1bf 09d9 b63d 525f c83e dab4 c93e
00000040: 6fd3 bf3e d125 013f 200c aebc 571d 813f
00000050: 3c2f 4abc a8d2 1d3e ee78 153e 07cf 6abf
00000060: 024a 9ebf 0275 51bd 9402 863e dea4 223f
00000070: 5708 36bf 260c 65be acd7 a23f e731 483d
00000080: d16a 84be 94f9 083f 9636 3f3f 69d1 79bd
00000090: a7db 193f 8fc7 5b3c 59e2 0b3f 465f 94bf
000000a0: 0f12 073f add5 5f3f 1764 38bf c228 ee3e
000000b0: 11e6 ffbe 18a7 8dbe 1c27 37be d4e0 fe3d
000000c0: 2420 95bf 6214 813e 9aab 1fbf 5a56 af3e
000000d0: 5505 853e dd68 93be a621 863f 9547 ce3e
000000e0: e3ce 6fbf eec1 aa3f 9837 99bf 71dc 243f
000000f0: 7b97 37bf e9a3 0abe 789e 833f 74fd 07bf
00000100: 4e90 a93e 19b8 5c3e 2e6c c63f 8683 7bbe
00000110: f495 6dbe 9400 88be e9c3 edbe 1f89 e3bf
00000120: 4888 a0bf b0da f6be c030 cd3f b209 73be
00000130: ac94 84bd d05d 92bb b265 103e 9aed 513e
00000140: 4e02 c23d e812 4dbf 5d7a 7ebf ce83 86bf
00000150: a5b7 8a3f fd33 6d3e ca67 3fbf 3019 783f
00000160: 0bf9 8abe 896e 95bf 16f2 493e 590f 1a3f
00000170: e298 873d 220c 283e 5656 fa3e ceea 3b3f
00000180: aab8 2dbf 212d 9dbf e023 883e 595a 3f3f
00000190: bff3 7cbf 0535 89bd 994d 443f 2ebe 443f
000001a0: 52e4 9d3f 34d4 a83d 27da fcbd 4339 f13e
000001b0: ef7c aebf 3ada 9d3e bb25 2b3d fcc9 0dbf
000001c0: bbaa a03f e551 74be 527c 8ebf 93d1 503f
000001d0: ac4e 50bf 15c6 06be 26c8 b1bd 5779 fe3c
000001e0: 8723 2bbf 5980 71bf b864 24bf d339 9b3e
000001f0: 1e5d a3bf 4f83 d63c 724c 4ebd c6d7 c83f
00000200: 44fb bb3f 8fbf 82bf 9215 0e3e c2d2 313f
00000210: 83fa 87bf ae49 5bbe 8e89 3abe 0e03 4bbf
00000220: 72d4 e9be e14d 6f3f fe0f b8bf 022f a73e
00000230: e4e7 96be b51c 333e 07fe f23d b3af 353f
00000240: 9c49 8ebf e4ea 6cbe 824f 57bf de7f 6dbf
00000250: 1348 653f 8839 78be 489a a63e 1e2c 833f
00000260: 2a4d ae3e 9c24 f13e 2772 b7bd 7ab5 7ebe
00000270: 3111 6b3f 17e8 1dbd 50aa 0fbe decb bdbe
00000280: f7ae f23e ba79 ddbd b238 0f3e a20a e5bd
00000290: 35a6 a73f b790 213e 4ad7 99bf a2de 21bf
000002a0: 7564 1abf cf18 82bf 1ec4 8f3f bf29 13be
000002b0: 44aa 38bf e0d5 833e 8422 873e 3f40 4b3f
000002c0: b81d 8f3f 4433 0b3f 0a03 44bf fe61 143e
000002d0: d0a3 0a3f 4eeb ac3e 962e cfbe 2288 7bbf
000002e0: 43bc 52be 14ca 32bd c075 ddbc b13a 9c3e
000002f0: 7150 89bf ad9c 313e 3681 ee3e fa8d 6b3f
00000300: 44ad 55be 98a6 ac3f 67e2 74bf d09f f7ba
00000310: 2161 423f 5a33 7c3e 87cf 33be cc0b 15bf
00000320: d8f2 bebf 700c 5e3e b073 7f3f 1d24 77bf
00000330: 101c 743f df96 03bd b0bc 883e c32f afbe
00000340: e7d1 12bf 3dea 823f ba7f 33be 5764 353d
00000350: 80e4 563e 6710 86be 5f95 1e3f 9e4f afbd
00000360: e0c5 8f3e c196 df3d a046 b23c 066a 55bf
00000370: 1600 253f 7d3c 333e a3d0 7dbe 5744 f83e
00000380: 825c ba3d 3fd4 4dbe 9c18 fabe 2a25 6bbf
00000390: 816e b83f 411d 313e 4df1 67bf 8dab 833e
000003a0: 1d36 a93e da9e 11bf c5bb 06bf 6e78 383f
000003b0: 652f 993e 927d 973e 3311 e23e 9d7b e03e
000003c0: 9b9c 54bf 8516 f1bd c2c4 333f ef3b 1fbf
000003d0: 22fb 323f b823 9e3d b717 1a3f f2e2 613e
000003e0: b9d5 d6be 2139 13bf f249 663f 9000 133f
000003f0: b585 32bc 4751 9dbe dee5 e33e b52d 843e
-1.7521955 1.0665473 0.10555574 0.31039232 -0.004295453 -0.116443105 0.6692063 -0.18259113
0.12586504 0.7690317 -1.3394845 0.6974085 -1.3904343 0.08928115 0.39135224 0.3939579
0.37466 0.5044833 -0.021246016 1.0087079 -0.012340363 0.1541239 0.14596912 -0.9172215
-1.2366335 -0.051136978 0.26173842 0.6353282 -0.71106476 -0.22367916 1.2722068 0.048875716
-0.25862744 0.53505826 0.74692667 -0.060990725 0.6010079 0.013414278 0.54642254 -1.1591575
0.5276193 0.8743542 -0.72027725 0.4651547 -0.49980214 -0.27666545 -0.17886013 0.12445226
-1.1650434 0.25210863 -0.6237122 0.3424557 0.2598063 -0.28790942 1.0479019 0.40288988
-0.9367506 1.3340433 -1.1970091 0.64398867 -0.71715516 -0.1353909 1.0282736 -0.53121114
0.33117908 0.21554603 1.5501764 -0.24561891 -0.23201734 -0.2656294 -0.4643853 -1.7776221
-1.254159 -0.4821372 1.6030502 -0.23734167 -0.064736694 -0.0044667497 0.14101294 0.20500794
0.09473096 -0.80106974 -0.9940546 -1.0508974 1.0837294 0.23164363 -0.74767745 0.96913433
-0.2714313 -1.1674358 0.19721255 0.6017967 0.06620957 0.16410878 0.48893994 0.7340516
-0.678599 -1.2279397 0.2658987 0.74747235 -0.9880943 -0.06699566 0.76680905 0.7685269
1.2335303 0.082435995 -0.12346297 0.47114 -1.3631877 0.30830556 0.04178403 -0.5538633
1.2552103 -0.23859365 -1.113169 0.81569785 -0.81370044 -0.131615 -0.086807534 0.031063719
-0.66851085 -0.9433647 -0.64216185 0.30317554 -1.2762792 0.02618566 -0.050365873 1.5690849
1.4686055 -1.0214709 0.13875416 0.69462216 -1.0623325 -0.21414825 -0.18216535 -0.79301536
-0.45669895 0.9347821 -1.437988 0.32653052 -0.29473794 0.1749142 0.11864858 0.7097122
-1.1116214 -0.23136479 -0.84105694 -0.92773235 0.895631 -0.24240696 0.32539582 1.0247838
0.34043247 0.47098243 -0.0895732 -0.24873915 0.91823107 -0.038551416 -0.14029813 -0.370696
0.47399113 -0.10814233 0.13986471 -0.11183669 1.3097597 0.1577786 -1.2018826 -0.63230336
-0.60309535 -1.0163821 1.1231725 -0.14371394 -0.72134805 0.2574911 0.2639352 0.79394907
1.1180944 0.543751 -0.7656714 0.14490506 0.5415621 0.33773273 -0.4046523 -0.982546
-0.20579629 -0.043649748 -0.027033687 0.30513528 -1.0727674 0.17344923 0.46582955 0.92013514
-0.20866877 1.348834 -0.9565796 -0.0018892232 0.75929457 0.24628964 -0.17559634 -0.58221126
-1.491786 0.21684432 0.997859 -0.9653948 0.9535532 -0.032126304 0.26706457 -0.34216127
-0.57351536 1.0227734 -0.17529193 0.044285145 0.20985603 -0.2618439 0.6194667 -0.08560108
0.28080654 0.10917426 0.021762192 -0.83364904 0.64453256 0.17503543 -0.2478662 0.4848964
0.09099676 -0.20100497 -0.488469 -0.9185358 1.4408723 0.17296316 -0.9060257 0.2571682
0.33049098 -0.56883013 -0.52630264 0.7205876 0.29918972 0.2958799 0.44153747 0.4384431
-0.8305146 -0.117718734 0.70222104 -0.62200826 0.6991445 0.077216566 0.60192436 0.22059229
-0.41959932 -0.57509047 0.8995658 0.57422733 -0.010896136 -0.30726072 0.44511312 0.25816122

l3.bias f4 [131]
00000000: 87ca 28be f7c3 ae3c 4409 513d 2420 153e
00000010: d928 6c3e 85e3 073e 4a64 fcbd 269d a1bd
00000020: d4b9 ab3b 476c 19bd 97eb e93d e58d 8c3d
00000030: 5391 af3d 1c20 fd3e c667 59be 43a3 eb3d
00000040: 6634 42be f7c3 873d 5838 853c 2d94 a3be
00000050: 4c85 7fbd cc03 e7bd 43bb d43e 12c1 b63c
00000060: 91a1 78be acc0 163e 3243 9a3e e422 89bd
00000070: e6b5 a7be f511 7cbe a17f 693e 72a2 a9be
00000080: 679c 18bd a955 a4be 0c08 e93e a155 063f
00000090: 4dea 41be 9dc5 8d3d a1ad 5f3e b89f e73d
000000a0: 61da 1c3e 0bf6 6b3e c1c0 3cbe 33d1 ab3d
000000b0: 1c95 a73c 48ed 94bd 182c 41bd 6e7e 7cbd
000000c0: 4503 ddbb 3971 46bd 8544 ae3e 73c4 ddbe
000000d0: 6394 10bf 169a f9bd e206 313e 24d3 5dbe
000000e0: 38ed ff3d 696a efbe 172c 7c3e 2a49 ee3d
000000f0: d219 29be dfcf 88be 42d7 b43e 5a9a ccbd
00000100: 7325 36bc d306 f6ba 963f c53e 24ae 46bd
00000110: e37f 19be 4f16 4e3e 9481 493c 4325 79be
00000120: b27b 5b3c 2b56 843d fd38 81be f45c 27be
00000130: 29a3 aa3c 604d 8b3e cc78 cb3d e5c2 783e
00000140: aa22 2fbe 2966 1bbe dd15 03bd e2cd 83be
00000150: 8e10 acbe 3575 d8be a609 4bbc 1c83 d83e
00000160: 4675 053c e887 54be db6a 7fbd 5829 5ebe
00000170: ba2a b3bd 033a 17bf b6f1 86bd bc83 aabe
00000180: 3fb2 b6be 094a f7bd 77e3 e2bc 53ef e2be
00000190: 2110 723e 5a0a 573e 1311 803d 4f10 053e
000001a0: 0da3 113e f243 b73d e5a3 47be 789d 55be
000001b0: a757 08be b8d8 353e 6994 b63d fe7b c23d
000001c0: c92b a7be 190a cebd f7b0 1d3e 51d7 3cbe
000001d0: 9473 82be 25de 47be 0acc bebe 232d 72be
000001e0: 0444 31bd 11f5 33bd a0aa 37be 3097 5a3f
000001f0: b497 e0bd 3731 1f3d b4e4 a43e c9d1 b53d
00000200: 7856 3bbd a606 3fbe d1c8 083e
-0.16483508 0.021333678 0.051034227 0.14563042 0.23062457 0.13270386 -0.12323816 -0.07891302
0.0052406583 -0.037456777 0.11421888 0.06863002 0.0857264 0.4943856 -0.21230993 0.11505749
-0.18965301 0.06629174 0.016262218 -0.31948987 -0.06238298 -0.11280021 0.4154912 0.02230886
-0.24280383 0.14721936 0.3012939 -0.06696108 -0.32755965 -0.24616225 0.22802593 -0.33131748
-0.037258532 -0.32096604 0.45513952 0.5247441 -0.18937035 0.06922457 0.21843578 0.11309761
0.1531768 0.23043077 -0.18432905 0.08389511 0.020456843 -0.0727182 -0.04716119 -0.06164401
-0.0067447745 -0.04844782 0.3403665 -0.4331394 -0.5647642 -0.12187593 0.17287782 -0.21662575
0.12496418 -0.46760872 0.24626194 0.11635049 -0.16513756 -0.26721093 0.3532048 -0.09990378
-0.011117327 -0.0018770344 0.38525075 -0.048505917 -0.14990191 0.20125698 0.01229896 -0.2433062
0.0133961905 0.06461748 -0.2523879 -0.16344053 0.020829754 0.2720747 0.099351496 0.24293096
-0.17103067 -0.1517569 -0.032003272 -0.25743014 -0.3360638 -0.42276922 -0.012392437 0.4228753
0.008145636 -0.20754969 -0.062357765 -0.21695459 -0.08748384 -0.59072894 -0.065890715 -0.3330363
-0.35682866 -0.12074668 -0.027696354 -0.44323215 0.23638965 0.21000043 0.06253257 0.12994502
0.14222355 0.089485064 -0.19496115 -0.20860851 -0.13314687 0.17758453 0.08915026 0.09496306
-0.32650593 -0.1006052 0.15399538 -0.18441512 -0.25478804 -0.19518335 -0.37265044 -0.23650031
-0.043277755 -0.043934885 -0.17936182 0.85386944 -0.10966435 0.038865294 0.32205737 0.08877904
-0.04573676 -0.1865488 0.13357855
